Model: "sequential_2"
_________________________________________________________________
Layer (type)                 Output Shape              Param #   
=================================================================
dense_8 (Dense)              (None, 64)                3496384   
_________________________________________________________________
dense_9 (Dense)              (None, 50)                3250      
_________________________________________________________________
dropout_6 (Dropout)          (None, 50)                0         
_________________________________________________________________
dense_10 (Dense)             (None, 50)                2550      
_________________________________________________________________
dropout_7 (Dropout)          (None, 50)                0         
_________________________________________________________________
dense_11 (Dense)             (None, 50)                2550      
_________________________________________________________________
dropout_8 (Dropout)          (None, 50)                0         
_________________________________________________________________
dense_12 (Dense)             (None, 50)                2550      
_________________________________________________________________
dropout_9 (Dropout)          (None, 50)                0         
_________________________________________________________________
dense_13 (Dense)             (None, 50)                2550      
_________________________________________________________________
dropout_10 (Dropout)         (None, 50)                0         
_________________________________________________________________
dense_14 (Dense)             (None, 6)                 306       
=================================================================
Total params: 3,510,140
Trainable params: 3,510,140
Non-trainable params: 0
_________________________________________________________________
[[249   3   0   0   2   0]
 [  3 165   0   0   4   0]
 [  0   0 157   0   1   0]
 [  0   0   0   0  21   0]
 [  0   7   0   0  61   0]
 [  0   0   0   0  19   0]]

 Precision : 0.5826278659611993
Model: "sequential_3"
_________________________________________________________________
Layer (type)                 Output Shape              Param #   
=================================================================
dense_15 (Dense)             (None, 64)                3496384   
_________________________________________________________________
dense_16 (Dense)             (None, 100)               6500      
_________________________________________________________________
dropout_11 (Dropout)         (None, 100)               0         
_________________________________________________________________
dense_17 (Dense)             (None, 100)               10100     
_________________________________________________________________
dropout_12 (Dropout)         (None, 100)               0         
_________________________________________________________________
dense_18 (Dense)             (None, 100)               10100     
_________________________________________________________________
dropout_13 (Dropout)         (None, 100)               0         
_________________________________________________________________
dense_19 (Dense)             (None, 100)               10100     
_________________________________________________________________
dropout_14 (Dropout)         (None, 100)               0         
_________________________________________________________________
dense_20 (Dense)             (None, 100)               10100     
_________________________________________________________________
dropout_15 (Dropout)         (None, 100)               0         
_________________________________________________________________
dense_21 (Dense)             (None, 6)                 606       
=================================================================
Total params: 3,543,890
Trainable params: 3,543,890
Non-trainable params: 0
_________________________________________________________________
[[244   8   0   0   2   0]
 [  0 161   0   1  10   0]
 [  0   1 157   0   0   0]
 [  0   0   0  21   0   0]
 [  0   1   0   7  60   0]
 [  0   0   0   9  10   0]]

 Precision : 0.7043098939761329
Model: "sequential_4"
_________________________________________________________________
Layer (type)                 Output Shape              Param #   
=================================================================
dense_22 (Dense)             (None, 64)                3496384   
_________________________________________________________________
dense_23 (Dense)             (None, 1000)              65000     
_________________________________________________________________
dropout_16 (Dropout)         (None, 1000)              0         
_________________________________________________________________
dense_24 (Dense)             (None, 1000)              1001000   
_________________________________________________________________
dropout_17 (Dropout)         (None, 1000)              0         
_________________________________________________________________
dense_25 (Dense)             (None, 1000)              1001000   
_________________________________________________________________
dropout_18 (Dropout)         (None, 1000)              0         
_________________________________________________________________
dense_26 (Dense)             (None, 1000)              1001000   
_________________________________________________________________
dropout_19 (Dropout)         (None, 1000)              0         
_________________________________________________________________
dense_27 (Dense)             (None, 1000)              1001000   
_________________________________________________________________
dropout_20 (Dropout)         (None, 1000)              0         
_________________________________________________________________
dense_28 (Dense)             (None, 6)                 6006      
=================================================================
Total params: 7,571,390
Trainable params: 7,571,390
Non-trainable params: 0
_________________________________________________________________
[[250   3   0   0   1   0]
 [  3 162   0   1   6   0]
 [  1   0 157   0   0   0]
 [  0   0   0  20   0   1]
 [  0   1   0   0  62   5]
 [  0   0   0   0   7  12]]

 Precision : 0.899165445948933
Model: "sequential_5"
_________________________________________________________________
Layer (type)                 Output Shape              Param #   
=================================================================
dense_29 (Dense)             (None, 64)                3496384   
_________________________________________________________________
dense_30 (Dense)             (None, 1500)              97500     
_________________________________________________________________
dropout_21 (Dropout)         (None, 1500)              0         
_________________________________________________________________
dense_31 (Dense)             (None, 1500)              2251500   
_________________________________________________________________
dropout_22 (Dropout)         (None, 1500)              0         
_________________________________________________________________
dense_32 (Dense)             (None, 1500)              2251500   
_________________________________________________________________
dropout_23 (Dropout)         (None, 1500)              0         
_________________________________________________________________
dense_33 (Dense)             (None, 1500)              2251500   
_________________________________________________________________
dropout_24 (Dropout)         (None, 1500)              0         
_________________________________________________________________
dense_34 (Dense)             (None, 1500)              2251500   
_________________________________________________________________
dropout_25 (Dropout)         (None, 1500)              0         
_________________________________________________________________
dense_35 (Dense)             (None, 6)                 9006      
=================================================================
Total params: 12,608,890
Trainable params: 12,608,890
Non-trainable params: 0
_________________________________________________________________
[[250   3   0   0   1   0]
 [  2 164   0   1   5   0]
 [  1   0 157   0   0   0]
 [  0   0   0  21   0   0]
 [  0   3   0   0  61   4]
 [  1   0   0   0   9   9]]

 Precision : 0.899740429442899
Model: "sequential_1"
_________________________________________________________________
Layer (type)                 Output Shape              Param #   
=================================================================
dense_1 (Dense)              (None, 64)                3496384   
_________________________________________________________________
dense_2 (Dense)              (None, 50)                3250      
_________________________________________________________________
dropout_1 (Dropout)          (None, 50)                0         
_________________________________________________________________
dense_3 (Dense)              (None, 50)                2550      
_________________________________________________________________
dropout_2 (Dropout)          (None, 50)                0         
_________________________________________________________________
dense_4 (Dense)              (None, 50)                2550      
_________________________________________________________________
dropout_3 (Dropout)          (None, 50)                0         
_________________________________________________________________
dense_5 (Dense)              (None, 50)                2550      
_________________________________________________________________
dropout_4 (Dropout)          (None, 50)                0         
_________________________________________________________________
dense_6 (Dense)              (None, 50)                2550      
_________________________________________________________________
dropout_5 (Dropout)          (None, 50)                0         
_________________________________________________________________
dense_7 (Dense)              (None, 6)                 306       
=================================================================
Total params: 3,510,140
Trainable params: 3,510,140
Non-trainable params: 0
_________________________________________________________________
[[249   3   0   0   2   0]
 [  2 160   0   0  10   0]
 [  0   0 157   0   1   0]
 [  0   0   0   0  21   0]
 [  0   1   0   0  67   0]
 [  0   0   0   0  19   0]]

 Precision : 0.5876624936568091
Model: "sequential_2"
_________________________________________________________________
Layer (type)                 Output Shape              Param #   
=================================================================
dense_8 (Dense)              (None, 64)                3496384   
_________________________________________________________________
dense_9 (Dense)              (None, 100)               6500      
_________________________________________________________________
dropout_6 (Dropout)          (None, 100)               0         
_________________________________________________________________
dense_10 (Dense)             (None, 100)               10100     
_________________________________________________________________
dropout_7 (Dropout)          (None, 100)               0         
_________________________________________________________________
dense_11 (Dense)             (None, 100)               10100     
_________________________________________________________________
dropout_8 (Dropout)          (None, 100)               0         
_________________________________________________________________
dense_12 (Dense)             (None, 100)               10100     
_________________________________________________________________
dropout_9 (Dropout)          (None, 100)               0         
_________________________________________________________________
dense_13 (Dense)             (None, 100)               10100     
_________________________________________________________________
dropout_10 (Dropout)         (None, 100)               0         
_________________________________________________________________
dense_14 (Dense)             (None, 6)                 606       
=================================================================
Total params: 3,543,890
Trainable params: 3,543,890
Non-trainable params: 0
_________________________________________________________________
[[249   4   0   0   1   0]
 [  2 161   0   1   8   0]
 [  1   0 157   0   0   0]
 [  0   0   0  21   0   0]
 [  0   1   0   3  61   3]
 [  0   0   0   2   9   8]]

 Precision : 0.8725295266587016
Model: "sequential_3"
_________________________________________________________________
Layer (type)                 Output Shape              Param #   
=================================================================
dense_15 (Dense)             (None, 64)                3496384   
_________________________________________________________________
dense_16 (Dense)             (None, 1000)              65000     
_________________________________________________________________
dropout_11 (Dropout)         (None, 1000)              0         
_________________________________________________________________
dense_17 (Dense)             (None, 1000)              1001000   
_________________________________________________________________
dropout_12 (Dropout)         (None, 1000)              0         
_________________________________________________________________
dense_18 (Dense)             (None, 1000)              1001000   
_________________________________________________________________
dropout_13 (Dropout)         (None, 1000)              0         
_________________________________________________________________
dense_19 (Dense)             (None, 1000)              1001000   
_________________________________________________________________
dropout_14 (Dropout)         (None, 1000)              0         
_________________________________________________________________
dense_20 (Dense)             (None, 1000)              1001000   
_________________________________________________________________
dropout_15 (Dropout)         (None, 1000)              0         
_________________________________________________________________
dense_21 (Dense)             (None, 6)                 6006      
=================================================================
Total params: 7,571,390
Trainable params: 7,571,390
Non-trainable params: 0
_________________________________________________________________
[[250   3   0   0   1   0]
 [  2 160   0   1   9   0]
 [  0   1 157   0   0   0]
 [  0   0   0  21   0   0]
 [  0   1   0   0  62   5]
 [  0   0   0   0   7  12]]

 Precision : 0.9011663993048953
Model: "sequential_4"
_________________________________________________________________
Layer (type)                 Output Shape              Param #   
=================================================================
dense_22 (Dense)             (None, 64)                3496384   
_________________________________________________________________
dense_23 (Dense)             (None, 1500)              97500     
_________________________________________________________________
dropout_16 (Dropout)         (None, 1500)              0         
_________________________________________________________________
dense_24 (Dense)             (None, 1500)              2251500   
_________________________________________________________________
dropout_17 (Dropout)         (None, 1500)              0         
_________________________________________________________________
dense_25 (Dense)             (None, 1500)              2251500   
_________________________________________________________________
dropout_18 (Dropout)         (None, 1500)              0         
_________________________________________________________________
dense_26 (Dense)             (None, 1500)              2251500   
_________________________________________________________________
dropout_19 (Dropout)         (None, 1500)              0         
_________________________________________________________________
dense_27 (Dense)             (None, 1500)              2251500   
_________________________________________________________________
dropout_20 (Dropout)         (None, 1500)              0         
_________________________________________________________________
dense_28 (Dense)             (None, 6)                 9006      
=================================================================
Total params: 12,608,890
Trainable params: 12,608,890
Non-trainable params: 0
_________________________________________________________________
[[250   3   0   0   1   0]
 [  3 160   0   1   8   0]
 [  1   0 157   0   0   0]
 [  0   0   0  20   0   1]
 [  0   1   0   0  62   5]
 [  1   0   0   0   9   9]]

 Precision : 0.8805638108902097
Model: "sequential_5"
_________________________________________________________________
Layer (type)                 Output Shape              Param #   
=================================================================
dense_29 (Dense)             (None, 64)                3496384   
_________________________________________________________________
dense_30 (Dense)             (None, 2000)              130000    
_________________________________________________________________
dropout_21 (Dropout)         (None, 2000)              0         
_________________________________________________________________
dense_31 (Dense)             (None, 2000)              4002000   
_________________________________________________________________
dropout_22 (Dropout)         (None, 2000)              0         
_________________________________________________________________
dense_32 (Dense)             (None, 2000)              4002000   
_________________________________________________________________
dropout_23 (Dropout)         (None, 2000)              0         
_________________________________________________________________
dense_33 (Dense)             (None, 2000)              4002000   
_________________________________________________________________
dropout_24 (Dropout)         (None, 2000)              0         
_________________________________________________________________
dense_34 (Dense)             (None, 2000)              4002000   
_________________________________________________________________
dropout_25 (Dropout)         (None, 2000)              0         
_________________________________________________________________
dense_35 (Dense)             (None, 6)                 12006     
=================================================================
Total params: 19,646,390
Trainable params: 19,646,390
Non-trainable params: 0
_________________________________________________________________
[[250   3   0   0   1   0]
 [  3 162   0   1   6   0]
 [  1   0 157   0   0   0]
 [  0   0   0  20   0   1]
 [  0   1   0   0  63   4]
 [  1   0   0   0   9   9]]

 Precision : 0.891500370164842
Model: "sequential_6"
_________________________________________________________________
Layer (type)                 Output Shape              Param #   
=================================================================
dense_36 (Dense)             (None, 64)                3496384   
_________________________________________________________________
dense_37 (Dense)             (None, 50)                3250      
_________________________________________________________________
dropout_26 (Dropout)         (None, 50)                0         
_________________________________________________________________
dense_38 (Dense)             (None, 50)                2550      
_________________________________________________________________
dropout_27 (Dropout)         (None, 50)                0         
_________________________________________________________________
dense_39 (Dense)             (None, 50)                2550      
_________________________________________________________________
dropout_28 (Dropout)         (None, 50)                0         
_________________________________________________________________
dense_40 (Dense)             (None, 50)                2550      
_________________________________________________________________
dropout_29 (Dropout)         (None, 50)                0         
_________________________________________________________________
dense_41 (Dense)             (None, 50)                2550      
_________________________________________________________________
dropout_30 (Dropout)         (None, 50)                0         
_________________________________________________________________
dense_42 (Dense)             (None, 50)                2550      
_________________________________________________________________
dropout_31 (Dropout)         (None, 50)                0         
_________________________________________________________________
dense_43 (Dense)             (None, 6)                 306       
=================================================================
Total params: 3,512,690
Trainable params: 3,512,690
Non-trainable params: 0
_________________________________________________________________
[[211  42   0   0   1   0]
 [  0 169   0   0   3   0]
 [157   1   0   0   0   0]
 [  0   0   0   0  21   0]
 [  0   8   0   0  60   0]
 [  0   1   0   0  18   0]]

 Precision : 0.3200999532358321
Model: "sequential_7"
_________________________________________________________________
Layer (type)                 Output Shape              Param #   
=================================================================
dense_44 (Dense)             (None, 64)                3496384   
_________________________________________________________________
dense_45 (Dense)             (None, 100)               6500      
_________________________________________________________________
dropout_32 (Dropout)         (None, 100)               0         
_________________________________________________________________
dense_46 (Dense)             (None, 100)               10100     
_________________________________________________________________
dropout_33 (Dropout)         (None, 100)               0         
_________________________________________________________________
dense_47 (Dense)             (None, 100)               10100     
_________________________________________________________________
dropout_34 (Dropout)         (None, 100)               0         
_________________________________________________________________
dense_48 (Dense)             (None, 100)               10100     
_________________________________________________________________
dropout_35 (Dropout)         (None, 100)               0         
_________________________________________________________________
dense_49 (Dense)             (None, 100)               10100     
_________________________________________________________________
dropout_36 (Dropout)         (None, 100)               0         
_________________________________________________________________
dense_50 (Dense)             (None, 100)               10100     
_________________________________________________________________
dropout_37 (Dropout)         (None, 100)               0         
_________________________________________________________________
dense_51 (Dense)             (None, 6)                 606       
=================================================================
Total params: 3,553,990
Trainable params: 3,553,990
Non-trainable params: 0
_________________________________________________________________
[[249   4   0   0   1   0]
 [  2 159   0   0  11   0]
 [  0   1 157   0   0   0]
 [  0   0   0  20   0   1]
 [  0   1   0   1  62   4]
 [  0   0   0   0  10   9]]

 Precision : 0.881500261579943
Model: "sequential_8"
_________________________________________________________________
Layer (type)                 Output Shape              Param #   
=================================================================
dense_52 (Dense)             (None, 64)                3496384   
_________________________________________________________________
dense_53 (Dense)             (None, 1000)              65000     
_________________________________________________________________
dropout_38 (Dropout)         (None, 1000)              0         
_________________________________________________________________
dense_54 (Dense)             (None, 1000)              1001000   
_________________________________________________________________
dropout_39 (Dropout)         (None, 1000)              0         
_________________________________________________________________
dense_55 (Dense)             (None, 1000)              1001000   
_________________________________________________________________
dropout_40 (Dropout)         (None, 1000)              0         
_________________________________________________________________
dense_56 (Dense)             (None, 1000)              1001000   
_________________________________________________________________
dropout_41 (Dropout)         (None, 1000)              0         
_________________________________________________________________
dense_57 (Dense)             (None, 1000)              1001000   
_________________________________________________________________
dropout_42 (Dropout)         (None, 1000)              0         
_________________________________________________________________
dense_58 (Dense)             (None, 1000)              1001000   
_________________________________________________________________
dropout_43 (Dropout)         (None, 1000)              0         
_________________________________________________________________
dense_59 (Dense)             (None, 6)                 6006      
=================================================================
Total params: 8,572,390
Trainable params: 8,572,390
Non-trainable params: 0
_________________________________________________________________
[[250   3   0   0   1   0]
 [  2 160   0   1   9   0]
 [  1   0 157   0   0   0]
 [  0   0   0  21   0   0]
 [  0   1   0   0  62   5]
 [  1   0   0   0   9   9]]

 Precision : 0.8871160701282547
Model: "sequential_9"
_________________________________________________________________
Layer (type)                 Output Shape              Param #   
=================================================================
dense_60 (Dense)             (None, 64)                3496384   
_________________________________________________________________
dense_61 (Dense)             (None, 1500)              97500     
_________________________________________________________________
dropout_44 (Dropout)         (None, 1500)              0         
_________________________________________________________________
dense_62 (Dense)             (None, 1500)              2251500   
_________________________________________________________________
dropout_45 (Dropout)         (None, 1500)              0         
_________________________________________________________________
dense_63 (Dense)             (None, 1500)              2251500   
_________________________________________________________________
dropout_46 (Dropout)         (None, 1500)              0         
_________________________________________________________________
dense_64 (Dense)             (None, 1500)              2251500   
_________________________________________________________________
dropout_47 (Dropout)         (None, 1500)              0         
_________________________________________________________________
dense_65 (Dense)             (None, 1500)              2251500   
_________________________________________________________________
dropout_48 (Dropout)         (None, 1500)              0         
_________________________________________________________________
dense_66 (Dense)             (None, 1500)              2251500   
_________________________________________________________________
dropout_49 (Dropout)         (None, 1500)              0         
_________________________________________________________________
dense_67 (Dense)             (None, 6)                 9006      
=================================================================
Total params: 14,860,390
Trainable params: 14,860,390
Non-trainable params: 0
_________________________________________________________________
[[250   3   0   0   1   0]
 [  3 159   0   1   9   0]
 [  1   0 157   0   0   0]
 [  0   0   0  20   0   1]
 [  0   1   0   0  62   5]
 [  0   0   0   0   9  10]]

 Precision : 0.8837541903916181
Model: "sequential_10"
_________________________________________________________________
Layer (type)                 Output Shape              Param #   
=================================================================
dense_68 (Dense)             (None, 64)                3496384   
_________________________________________________________________
dense_69 (Dense)             (None, 2000)              130000    
_________________________________________________________________
dropout_50 (Dropout)         (None, 2000)              0         
_________________________________________________________________
dense_70 (Dense)             (None, 2000)              4002000   
_________________________________________________________________
dropout_51 (Dropout)         (None, 2000)              0         
_________________________________________________________________
dense_71 (Dense)             (None, 2000)              4002000   
_________________________________________________________________
dropout_52 (Dropout)         (None, 2000)              0         
_________________________________________________________________
dense_72 (Dense)             (None, 2000)              4002000   
_________________________________________________________________
dropout_53 (Dropout)         (None, 2000)              0         
_________________________________________________________________
dense_73 (Dense)             (None, 2000)              4002000   
_________________________________________________________________
dropout_54 (Dropout)         (None, 2000)              0         
_________________________________________________________________
dense_74 (Dense)             (None, 2000)              4002000   
_________________________________________________________________
dropout_55 (Dropout)         (None, 2000)              0         
_________________________________________________________________
dense_75 (Dense)             (None, 6)                 12006     
=================================================================
Total params: 23,648,390
Trainable params: 23,648,390
Non-trainable params: 0
_________________________________________________________________
[[250   3   0   0   1   0]
 [  2 163   0   1   6   0]
 [  1   0 157   0   0   0]
 [  0   0   0  20   0   1]
 [  0   3   0   0  61   4]
 [  1   0   0   0  10   8]]

 Precision : 0.8830943099568177
Model: "sequential_11"
_________________________________________________________________
Layer (type)                 Output Shape              Param #   
=================================================================
dense_76 (Dense)             (None, 64)                3496384   
_________________________________________________________________
dense_77 (Dense)             (None, 50)                3250      
_________________________________________________________________
dropout_56 (Dropout)         (None, 50)                0         
_________________________________________________________________
dense_78 (Dense)             (None, 50)                2550      
_________________________________________________________________
dropout_57 (Dropout)         (None, 50)                0         
_________________________________________________________________
dense_79 (Dense)             (None, 50)                2550      
_________________________________________________________________
dropout_58 (Dropout)         (None, 50)                0         
_________________________________________________________________
dense_80 (Dense)             (None, 50)                2550      
_________________________________________________________________
dropout_59 (Dropout)         (None, 50)                0         
_________________________________________________________________
dense_81 (Dense)             (None, 50)                2550      
_________________________________________________________________
dropout_60 (Dropout)         (None, 50)                0         
_________________________________________________________________
dense_82 (Dense)             (None, 6)                 306       
=================================================================
Total params: 3,510,140
Trainable params: 3,510,140
Non-trainable params: 0
_________________________________________________________________
[[254   0   0   0   0   0]
 [172   0   0   0   0   0]
 [158   0   0   0   0   0]
 [ 21   0   0   0   0   0]
 [ 68   0   0   0   0   0]
 [ 19   0   0   0   0   0]]

 Precision : 0.06117533718689788
Model: "sequential_12"
_________________________________________________________________
Layer (type)                 Output Shape              Param #   
=================================================================
dense_83 (Dense)             (None, 64)                3496384   
_________________________________________________________________
dense_84 (Dense)             (None, 100)               6500      
_________________________________________________________________
dropout_61 (Dropout)         (None, 100)               0         
_________________________________________________________________
dense_85 (Dense)             (None, 100)               10100     
_________________________________________________________________
dropout_62 (Dropout)         (None, 100)               0         
_________________________________________________________________
dense_86 (Dense)             (None, 100)               10100     
_________________________________________________________________
dropout_63 (Dropout)         (None, 100)               0         
_________________________________________________________________
dense_87 (Dense)             (None, 100)               10100     
_________________________________________________________________
dropout_64 (Dropout)         (None, 100)               0         
_________________________________________________________________
dense_88 (Dense)             (None, 100)               10100     
_________________________________________________________________
dropout_65 (Dropout)         (None, 100)               0         
_________________________________________________________________
dense_89 (Dense)             (None, 6)                 606       
=================================================================
Total params: 3,543,890
Trainable params: 3,543,890
Non-trainable params: 0
_________________________________________________________________
[[250   3   0   0   1   0]
 [  3 161   0   1   7   0]
 [  1   0 157   0   0   0]
 [  0   0   0  21   0   0]
 [  0   2   0   0  62   4]
 [  0   0   0   0   9  10]]

 Precision : 0.9012954636649456
Model: "sequential_13"
_________________________________________________________________
Layer (type)                 Output Shape              Param #   
=================================================================
dense_90 (Dense)             (None, 64)                3496384   
_________________________________________________________________
dense_91 (Dense)             (None, 1000)              65000     
_________________________________________________________________
dropout_66 (Dropout)         (None, 1000)              0         
_________________________________________________________________
dense_92 (Dense)             (None, 1000)              1001000   
_________________________________________________________________
dropout_67 (Dropout)         (None, 1000)              0         
_________________________________________________________________
dense_93 (Dense)             (None, 1000)              1001000   
_________________________________________________________________
dropout_68 (Dropout)         (None, 1000)              0         
_________________________________________________________________
dense_94 (Dense)             (None, 1000)              1001000   
_________________________________________________________________
dropout_69 (Dropout)         (None, 1000)              0         
_________________________________________________________________
dense_95 (Dense)             (None, 1000)              1001000   
_________________________________________________________________
dropout_70 (Dropout)         (None, 1000)              0         
_________________________________________________________________
dense_96 (Dense)             (None, 6)                 6006      
=================================================================
Total params: 7,571,390
Trainable params: 7,571,390
Non-trainable params: 0
_________________________________________________________________
[[250   3   0   0   1   0]
 [  2 162   0   1   7   0]
 [  1   0 157   0   0   0]
 [  0   0   0  21   0   0]
 [  0   1   0   0  63   4]
 [  1   0   0   0   9   9]]

 Precision : 0.8990847883024858
Model: "sequential_14"
_________________________________________________________________
Layer (type)                 Output Shape              Param #   
=================================================================
dense_97 (Dense)             (None, 64)                3496384   
_________________________________________________________________
dense_98 (Dense)             (None, 1500)              97500     
_________________________________________________________________
dropout_71 (Dropout)         (None, 1500)              0         
_________________________________________________________________
dense_99 (Dense)             (None, 1500)              2251500   
_________________________________________________________________
dropout_72 (Dropout)         (None, 1500)              0         
_________________________________________________________________
dense_100 (Dense)            (None, 1500)              2251500   
_________________________________________________________________
dropout_73 (Dropout)         (None, 1500)              0         
_________________________________________________________________
dense_101 (Dense)            (None, 1500)              2251500   
_________________________________________________________________
dropout_74 (Dropout)         (None, 1500)              0         
_________________________________________________________________
dense_102 (Dense)            (None, 1500)              2251500   
_________________________________________________________________
dropout_75 (Dropout)         (None, 1500)              0         
_________________________________________________________________
dense_103 (Dense)            (None, 6)                 9006      
=================================================================
Total params: 12,608,890
Trainable params: 12,608,890
Non-trainable params: 0
_________________________________________________________________
[[250   3   0   0   1   0]
 [  3 160   0   1   8   0]
 [  1   0 157   0   0   0]
 [  0   0   0  20   0   1]
 [  0   1   0   0  63   4]
 [  1   0   0   0   9   9]]

 Precision : 0.88816963099603
Model: "sequential_15"
_________________________________________________________________
Layer (type)                 Output Shape              Param #   
=================================================================
dense_104 (Dense)            (None, 64)                3496384   
_________________________________________________________________
dense_105 (Dense)            (None, 2000)              130000    
_________________________________________________________________
dropout_76 (Dropout)         (None, 2000)              0         
_________________________________________________________________
dense_106 (Dense)            (None, 2000)              4002000   
_________________________________________________________________
dropout_77 (Dropout)         (None, 2000)              0         
_________________________________________________________________
dense_107 (Dense)            (None, 2000)              4002000   
_________________________________________________________________
dropout_78 (Dropout)         (None, 2000)              0         
_________________________________________________________________
dense_108 (Dense)            (None, 2000)              4002000   
_________________________________________________________________
dropout_79 (Dropout)         (None, 2000)              0         
_________________________________________________________________
dense_109 (Dense)            (None, 2000)              4002000   
_________________________________________________________________
dropout_80 (Dropout)         (None, 2000)              0         
_________________________________________________________________
dense_110 (Dense)            (None, 6)                 12006     
=================================================================
Total params: 19,646,390
Trainable params: 19,646,390
Non-trainable params: 0
_________________________________________________________________
[[249   3   0   0   2   0]
 [  2 161   0   1   8   0]
 [  1   0 157   0   0   0]
 [  0   0   0  21   0   0]
 [  0   2   0   0  62   4]
 [  0   0   0   0   9  10]]

 Precision : 0.8987063372940214
Model: "sequential_16"
_________________________________________________________________
Layer (type)                 Output Shape              Param #   
=================================================================
dense_111 (Dense)            (None, 64)                3496384   
_________________________________________________________________
dense_112 (Dense)            (None, 50)                3250      
_________________________________________________________________
dropout_81 (Dropout)         (None, 50)                0         
_________________________________________________________________
dense_113 (Dense)            (None, 50)                2550      
_________________________________________________________________
dropout_82 (Dropout)         (None, 50)                0         
_________________________________________________________________
dense_114 (Dense)            (None, 50)                2550      
_________________________________________________________________
dropout_83 (Dropout)         (None, 50)                0         
_________________________________________________________________
dense_115 (Dense)            (None, 50)                2550      
_________________________________________________________________
dropout_84 (Dropout)         (None, 50)                0         
_________________________________________________________________
dense_116 (Dense)            (None, 50)                2550      
_________________________________________________________________
dropout_85 (Dropout)         (None, 50)                0         
_________________________________________________________________
dense_117 (Dense)            (None, 50)                2550      
_________________________________________________________________
dropout_86 (Dropout)         (None, 50)                0         
_________________________________________________________________
dense_118 (Dense)            (None, 6)                 306       
=================================================================
Total params: 3,512,690
Trainable params: 3,512,690
Non-trainable params: 0
_________________________________________________________________
[[254   0   0   0   0   0]
 [172   0   0   0   0   0]
 [158   0   0   0   0   0]
 [ 21   0   0   0   0   0]
 [ 68   0   0   0   0   0]
 [ 19   0   0   0   0   0]]

 Precision : 0.06117533718689788
Model: "sequential_17"
_________________________________________________________________
Layer (type)                 Output Shape              Param #   
=================================================================
dense_119 (Dense)            (None, 64)                3496384   
_________________________________________________________________
dense_120 (Dense)            (None, 100)               6500      
_________________________________________________________________
dropout_87 (Dropout)         (None, 100)               0         
_________________________________________________________________
dense_121 (Dense)            (None, 100)               10100     
_________________________________________________________________
dropout_88 (Dropout)         (None, 100)               0         
_________________________________________________________________
dense_122 (Dense)            (None, 100)               10100     
_________________________________________________________________
dropout_89 (Dropout)         (None, 100)               0         
_________________________________________________________________
dense_123 (Dense)            (None, 100)               10100     
_________________________________________________________________
dropout_90 (Dropout)         (None, 100)               0         
_________________________________________________________________
dense_124 (Dense)            (None, 100)               10100     
_________________________________________________________________
dropout_91 (Dropout)         (None, 100)               0         
_________________________________________________________________
dense_125 (Dense)            (None, 100)               10100     
_________________________________________________________________
dropout_92 (Dropout)         (None, 100)               0         
_________________________________________________________________
dense_126 (Dense)            (None, 6)                 606       
=================================================================
Total params: 3,553,990
Trainable params: 3,553,990
Non-trainable params: 0
_________________________________________________________________
[[250   3   0   0   1   0]
 [  3 161   0   0   8   0]
 [  1   0 157   0   0   0]
 [  0   0   0  19   1   1]
 [  0   1   0   1  62   4]
 [  1   0   0   5  10   3]]

 Precision : 0.807874548932655
Model: "sequential_18"
_________________________________________________________________
Layer (type)                 Output Shape              Param #   
=================================================================
dense_127 (Dense)            (None, 64)                3496384   
_________________________________________________________________
dense_128 (Dense)            (None, 1000)              65000     
_________________________________________________________________
dropout_93 (Dropout)         (None, 1000)              0         
_________________________________________________________________
dense_129 (Dense)            (None, 1000)              1001000   
_________________________________________________________________
dropout_94 (Dropout)         (None, 1000)              0         
_________________________________________________________________
dense_130 (Dense)            (None, 1000)              1001000   
_________________________________________________________________
dropout_95 (Dropout)         (None, 1000)              0         
_________________________________________________________________
dense_131 (Dense)            (None, 1000)              1001000   
_________________________________________________________________
dropout_96 (Dropout)         (None, 1000)              0         
_________________________________________________________________
dense_132 (Dense)            (None, 1000)              1001000   
_________________________________________________________________
dropout_97 (Dropout)         (None, 1000)              0         
_________________________________________________________________
dense_133 (Dense)            (None, 1000)              1001000   
_________________________________________________________________
dropout_98 (Dropout)         (None, 1000)              0         
_________________________________________________________________
dense_134 (Dense)            (None, 6)                 6006      
=================================================================
Total params: 8,572,390
Trainable params: 8,572,390
Non-trainable params: 0
_________________________________________________________________
[[254   0   0   0   0   0]
 [172   0   0   0   0   0]
 [158   0   0   0   0   0]
 [ 21   0   0   0   0   0]
 [ 68   0   0   0   0   0]
 [ 19   0   0   0   0   0]]

 Precision : 0.06117533718689788
Model: "sequential_19"
_________________________________________________________________
Layer (type)                 Output Shape              Param #   
=================================================================
dense_135 (Dense)            (None, 64)                3496384   
_________________________________________________________________
dense_136 (Dense)            (None, 1500)              97500     
_________________________________________________________________
dropout_99 (Dropout)         (None, 1500)              0         
_________________________________________________________________
dense_137 (Dense)            (None, 1500)              2251500   
_________________________________________________________________
dropout_100 (Dropout)        (None, 1500)              0         
_________________________________________________________________
dense_138 (Dense)            (None, 1500)              2251500   
_________________________________________________________________
dropout_101 (Dropout)        (None, 1500)              0         
_________________________________________________________________
dense_139 (Dense)            (None, 1500)              2251500   
_________________________________________________________________
dropout_102 (Dropout)        (None, 1500)              0         
_________________________________________________________________
dense_140 (Dense)            (None, 1500)              2251500   
_________________________________________________________________
dropout_103 (Dropout)        (None, 1500)              0         
_________________________________________________________________
dense_141 (Dense)            (None, 1500)              2251500   
_________________________________________________________________
dropout_104 (Dropout)        (None, 1500)              0         
_________________________________________________________________
dense_142 (Dense)            (None, 6)                 9006      
=================================================================
Total params: 14,860,390
Trainable params: 14,860,390
Non-trainable params: 0
_________________________________________________________________
[[250   3   0   0   1   0]
 [  2 162   0   1   7   0]
 [  1   0 157   0   0   0]
 [  0   0   0  20   0   1]
 [  0   2   0   0  61   5]
 [  0   0   0   0   9  10]]

 Precision : 0.8862724011936457
Model: "sequential_20"
_________________________________________________________________
Layer (type)                 Output Shape              Param #   
=================================================================
dense_143 (Dense)            (None, 64)                3496384   
_________________________________________________________________
dense_144 (Dense)            (None, 2000)              130000    
_________________________________________________________________
dropout_105 (Dropout)        (None, 2000)              0         
_________________________________________________________________
dense_145 (Dense)            (None, 2000)              4002000   
_________________________________________________________________
dropout_106 (Dropout)        (None, 2000)              0         
_________________________________________________________________
dense_146 (Dense)            (None, 2000)              4002000   
_________________________________________________________________
dropout_107 (Dropout)        (None, 2000)              0         
_________________________________________________________________
dense_147 (Dense)            (None, 2000)              4002000   
_________________________________________________________________
dropout_108 (Dropout)        (None, 2000)              0         
_________________________________________________________________
dense_148 (Dense)            (None, 2000)              4002000   
_________________________________________________________________
dropout_109 (Dropout)        (None, 2000)              0         
_________________________________________________________________
dense_149 (Dense)            (None, 2000)              4002000   
_________________________________________________________________
dropout_110 (Dropout)        (None, 2000)              0         
_________________________________________________________________
dense_150 (Dense)            (None, 6)                 12006     
=================================================================
Total params: 23,648,390
Trainable params: 23,648,390
Non-trainable params: 0
_________________________________________________________________
[[249   4   0   0   1   0]
 [  2 160   0   0  10   0]
 [  0   1 157   0   0   0]
 [  0   0   0  20   0   1]
 [  0   1   0   0  63   4]
 [  1   0   0   0   9   9]]

 Precision : 0.8923073245362403
Model: "sequential_21"
_________________________________________________________________
Layer (type)                 Output Shape              Param #   
=================================================================
dense_151 (Dense)            (None, 64)                3496384   
_________________________________________________________________
dense_152 (Dense)            (None, 50)                3250      
_________________________________________________________________
dropout_111 (Dropout)        (None, 50)                0         
_________________________________________________________________
dense_153 (Dense)            (None, 50)                2550      
_________________________________________________________________
dropout_112 (Dropout)        (None, 50)                0         
_________________________________________________________________
dense_154 (Dense)            (None, 50)                2550      
_________________________________________________________________
dropout_113 (Dropout)        (None, 50)                0         
_________________________________________________________________
dense_155 (Dense)            (None, 50)                2550      
_________________________________________________________________
dropout_114 (Dropout)        (None, 50)                0         
_________________________________________________________________
dense_156 (Dense)            (None, 50)                2550      
_________________________________________________________________
dropout_115 (Dropout)        (None, 50)                0         
_________________________________________________________________
dense_157 (Dense)            (None, 6)                 306       
=================================================================
Total params: 3,510,140
Trainable params: 3,510,140
Non-trainable params: 0
_________________________________________________________________
[[251   2   0   0   1   0]
 [  4 158   0   0  10   0]
 [  1   0 157   0   0   0]
 [  0   0   0  17   2   2]
 [  0   1   0   1  62   4]
 [  1   0   0   3  10   5]]

 Precision : 0.8252501974834217
Model: "sequential_22"
_________________________________________________________________
Layer (type)                 Output Shape              Param #   
=================================================================
dense_158 (Dense)            (None, 64)                3496384   
_________________________________________________________________
dense_159 (Dense)            (None, 100)               6500      
_________________________________________________________________
dropout_116 (Dropout)        (None, 100)               0         
_________________________________________________________________
dense_160 (Dense)            (None, 100)               10100     
_________________________________________________________________
dropout_117 (Dropout)        (None, 100)               0         
_________________________________________________________________
dense_161 (Dense)            (None, 100)               10100     
_________________________________________________________________
dropout_118 (Dropout)        (None, 100)               0         
_________________________________________________________________
dense_162 (Dense)            (None, 100)               10100     
_________________________________________________________________
dropout_119 (Dropout)        (None, 100)               0         
_________________________________________________________________
dense_163 (Dense)            (None, 100)               10100     
_________________________________________________________________
dropout_120 (Dropout)        (None, 100)               0         
_________________________________________________________________
dense_164 (Dense)            (None, 6)                 606       
=================================================================
Total params: 3,543,890
Trainable params: 3,543,890
Non-trainable params: 0
_________________________________________________________________
[[251   2   0   0   1   0]
 [  3 163   0   1   5   0]
 [  1   0 157   0   0   0]
 [  0   0   0  21   0   0]
 [  0   3   0   1  59   5]
 [  1   0   0   3  10   5]]

 Precision : 0.8408443032661784
Model: "sequential_23"
_________________________________________________________________
Layer (type)                 Output Shape              Param #   
=================================================================
dense_165 (Dense)            (None, 64)                3496384   
_________________________________________________________________
dense_166 (Dense)            (None, 1000)              65000     
_________________________________________________________________
dropout_121 (Dropout)        (None, 1000)              0         
_________________________________________________________________
dense_167 (Dense)            (None, 1000)              1001000   
_________________________________________________________________
dropout_122 (Dropout)        (None, 1000)              0         
_________________________________________________________________
dense_168 (Dense)            (None, 1000)              1001000   
_________________________________________________________________
dropout_123 (Dropout)        (None, 1000)              0         
_________________________________________________________________
dense_169 (Dense)            (None, 1000)              1001000   
_________________________________________________________________
dropout_124 (Dropout)        (None, 1000)              0         
_________________________________________________________________
dense_170 (Dense)            (None, 1000)              1001000   
_________________________________________________________________
dropout_125 (Dropout)        (None, 1000)              0         
_________________________________________________________________
dense_171 (Dense)            (None, 6)                 6006      
=================================================================
Total params: 7,571,390
Trainable params: 7,571,390
Non-trainable params: 0
_________________________________________________________________
[[254   0   0   0   0   0]
 [172   0   0   0   0   0]
 [158   0   0   0   0   0]
 [ 21   0   0   0   0   0]
 [ 68   0   0   0   0   0]
 [ 19   0   0   0   0   0]]

 Precision : 0.06117533718689788
Model: "sequential_24"
_________________________________________________________________
Layer (type)                 Output Shape              Param #   
=================================================================
dense_172 (Dense)            (None, 64)                3496384   
_________________________________________________________________
dense_173 (Dense)            (None, 1500)              97500     
_________________________________________________________________
dropout_126 (Dropout)        (None, 1500)              0         
_________________________________________________________________
dense_174 (Dense)            (None, 1500)              2251500   
_________________________________________________________________
dropout_127 (Dropout)        (None, 1500)              0         
_________________________________________________________________
dense_175 (Dense)            (None, 1500)              2251500   
_________________________________________________________________
dropout_128 (Dropout)        (None, 1500)              0         
_________________________________________________________________
dense_176 (Dense)            (None, 1500)              2251500   
_________________________________________________________________
dropout_129 (Dropout)        (None, 1500)              0         
_________________________________________________________________
dense_177 (Dense)            (None, 1500)              2251500   
_________________________________________________________________
dropout_130 (Dropout)        (None, 1500)              0         
_________________________________________________________________
dense_178 (Dense)            (None, 6)                 9006      
=================================================================
Total params: 12,608,890
Trainable params: 12,608,890
Non-trainable params: 0
_________________________________________________________________
[[254   0   0   0   0   0]
 [172   0   0   0   0   0]
 [158   0   0   0   0   0]
 [ 21   0   0   0   0   0]
 [ 68   0   0   0   0   0]
 [ 19   0   0   0   0   0]]

 Precision : 0.06117533718689788
Model: "sequential_25"
_________________________________________________________________
Layer (type)                 Output Shape              Param #   
=================================================================
dense_179 (Dense)            (None, 64)                3496384   
_________________________________________________________________
dense_180 (Dense)            (None, 2000)              130000    
_________________________________________________________________
dropout_131 (Dropout)        (None, 2000)              0         
_________________________________________________________________
dense_181 (Dense)            (None, 2000)              4002000   
_________________________________________________________________
dropout_132 (Dropout)        (None, 2000)              0         
_________________________________________________________________
dense_182 (Dense)            (None, 2000)              4002000   
_________________________________________________________________
dropout_133 (Dropout)        (None, 2000)              0         
_________________________________________________________________
dense_183 (Dense)            (None, 2000)              4002000   
_________________________________________________________________
dropout_134 (Dropout)        (None, 2000)              0         
_________________________________________________________________
dense_184 (Dense)            (None, 2000)              4002000   
_________________________________________________________________
dropout_135 (Dropout)        (None, 2000)              0         
_________________________________________________________________
dense_185 (Dense)            (None, 6)                 12006     
=================================================================
Total params: 19,646,390
Trainable params: 19,646,390
Non-trainable params: 0
_________________________________________________________________
[[250   3   0   0   1   0]
 [  3 160   0   1   8   0]
 [  1   0 157   0   0   0]
 [  0   0   0  20   0   1]
 [  0   2   0   0  61   5]
 [  1   0   0   0   9   9]]

 Precision : 0.8791036629458073
Model: "sequential_26"
_________________________________________________________________
Layer (type)                 Output Shape              Param #   
=================================================================
dense_186 (Dense)            (None, 64)                3496384   
_________________________________________________________________
dense_187 (Dense)            (None, 50)                3250      
_________________________________________________________________
dropout_136 (Dropout)        (None, 50)                0         
_________________________________________________________________
dense_188 (Dense)            (None, 50)                2550      
_________________________________________________________________
dropout_137 (Dropout)        (None, 50)                0         
_________________________________________________________________
dense_189 (Dense)            (None, 50)                2550      
_________________________________________________________________
dropout_138 (Dropout)        (None, 50)                0         
_________________________________________________________________
dense_190 (Dense)            (None, 50)                2550      
_________________________________________________________________
dropout_139 (Dropout)        (None, 50)                0         
_________________________________________________________________
dense_191 (Dense)            (None, 50)                2550      
_________________________________________________________________
dropout_140 (Dropout)        (None, 50)                0         
_________________________________________________________________
dense_192 (Dense)            (None, 50)                2550      
_________________________________________________________________
dropout_141 (Dropout)        (None, 50)                0         
_________________________________________________________________
dense_193 (Dense)            (None, 6)                 306       
=================================================================
Total params: 3,512,690
Trainable params: 3,512,690
Non-trainable params: 0
_________________________________________________________________
[[ 47 203   0   0   4   0]
 [  0  63   0   0 109   0]
 [157   1   0   0   0   0]
 [  0   1   0   0  20   0]
 [  0   2   0   0  66   0]
 [  0   0   0   0  19   0]]

 Precision : 0.1277462972956767
Model: "sequential_27"
_________________________________________________________________
Layer (type)                 Output Shape              Param #   
=================================================================
dense_194 (Dense)            (None, 64)                3496384   
_________________________________________________________________
dense_195 (Dense)            (None, 100)               6500      
_________________________________________________________________
dropout_142 (Dropout)        (None, 100)               0         
_________________________________________________________________
dense_196 (Dense)            (None, 100)               10100     
_________________________________________________________________
dropout_143 (Dropout)        (None, 100)               0         
_________________________________________________________________
dense_197 (Dense)            (None, 100)               10100     
_________________________________________________________________
dropout_144 (Dropout)        (None, 100)               0         
_________________________________________________________________
dense_198 (Dense)            (None, 100)               10100     
_________________________________________________________________
dropout_145 (Dropout)        (None, 100)               0         
_________________________________________________________________
dense_199 (Dense)            (None, 100)               10100     
_________________________________________________________________
dropout_146 (Dropout)        (None, 100)               0         
_________________________________________________________________
dense_200 (Dense)            (None, 100)               10100     
_________________________________________________________________
dropout_147 (Dropout)        (None, 100)               0         
_________________________________________________________________
dense_201 (Dense)            (None, 6)                 606       
=================================================================
Total params: 3,553,990
Trainable params: 3,553,990
Non-trainable params: 0
_________________________________________________________________
[[250   3   0   0   1   0]
 [  3 159   0   0   9   1]
 [  1   0 157   0   0   0]
 [  0   0   0  19   0   2]
 [  0   2   0   0  60   6]
 [  0   0   0   0   9  10]]

 Precision : 0.8732622706642746
Model: "sequential_28"
_________________________________________________________________
Layer (type)                 Output Shape              Param #   
=================================================================
dense_202 (Dense)            (None, 64)                3496384   
_________________________________________________________________
dense_203 (Dense)            (None, 1000)              65000     
_________________________________________________________________
dropout_148 (Dropout)        (None, 1000)              0         
_________________________________________________________________
dense_204 (Dense)            (None, 1000)              1001000   
_________________________________________________________________
dropout_149 (Dropout)        (None, 1000)              0         
_________________________________________________________________
dense_205 (Dense)            (None, 1000)              1001000   
_________________________________________________________________
dropout_150 (Dropout)        (None, 1000)              0         
_________________________________________________________________
dense_206 (Dense)            (None, 1000)              1001000   
_________________________________________________________________
dropout_151 (Dropout)        (None, 1000)              0         
_________________________________________________________________
dense_207 (Dense)            (None, 1000)              1001000   
_________________________________________________________________
dropout_152 (Dropout)        (None, 1000)              0         
_________________________________________________________________
dense_208 (Dense)            (None, 1000)              1001000   
_________________________________________________________________
dropout_153 (Dropout)        (None, 1000)              0         
_________________________________________________________________
dense_209 (Dense)            (None, 6)                 6006      
=================================================================
Total params: 8,572,390
Trainable params: 8,572,390
Non-trainable params: 0
_________________________________________________________________
[[250   3   0   0   1   0]
 [  2 163   0   1   6   0]
 [  0   1 157   0   0   0]
 [  0   0   0  20   0   1]
 [  0   2   0   0  62   4]
 [  1   0   0   0   8  10]]

 Precision : 0.8961469596921102
Model: "sequential_29"
_________________________________________________________________
Layer (type)                 Output Shape              Param #   
=================================================================
dense_210 (Dense)            (None, 64)                3496384   
_________________________________________________________________
dense_211 (Dense)            (None, 1500)              97500     
_________________________________________________________________
dropout_154 (Dropout)        (None, 1500)              0         
_________________________________________________________________
dense_212 (Dense)            (None, 1500)              2251500   
_________________________________________________________________
dropout_155 (Dropout)        (None, 1500)              0         
_________________________________________________________________
dense_213 (Dense)            (None, 1500)              2251500   
_________________________________________________________________
dropout_156 (Dropout)        (None, 1500)              0         
_________________________________________________________________
dense_214 (Dense)            (None, 1500)              2251500   
_________________________________________________________________
dropout_157 (Dropout)        (None, 1500)              0         
_________________________________________________________________
dense_215 (Dense)            (None, 1500)              2251500   
_________________________________________________________________
dropout_158 (Dropout)        (None, 1500)              0         
_________________________________________________________________
dense_216 (Dense)            (None, 1500)              2251500   
_________________________________________________________________
dropout_159 (Dropout)        (None, 1500)              0         
_________________________________________________________________
dense_217 (Dense)            (None, 6)                 9006      
=================================================================
Total params: 14,860,390
Trainable params: 14,860,390
Non-trainable params: 0
_________________________________________________________________
[[250   3   0   0   1   0]
 [  2 160   0   1   9   0]
 [  1   0 157   0   0   0]
 [  0   0   0  20   0   1]
 [  0   1   0   0  63   4]
 [  0   0   0   0   9  10]]

 Precision : 0.8918487250936881
